…
WARNING:tensorflow:From /usr/local/lib/python3.5/dist-packages/tensorflow/python/ops/nn_impl.py:180: add_dispatch_support.<locals>.wrapper (from tensorflow.python.ops.array_ops) is deprecated and will be removed in a future version.
Instructions for updating:
Use tf.where in 2.0, which has the same broadcast rule as np.where
WARNING:tensorflow:From /usr/local/lib/python3.5/dist-packages/keras/backend/tensorflow_backend.py:1940: The name tf.image.resize_nearest_neighbor is deprecated. Please use tf.compat.v1.image.resize_nearest_neighbor instead.

_________________________________________________________________
Layer (type)                 Output Shape              Param #   
=================================================================
dense_2 (Dense)              (None, 4096)              413696    
_________________________________________________________________
reshape_1 (Reshape)          (None, 4, 4, 256)         0         
_________________________________________________________________
up_sampling2d_1 (UpSampling2 (None, 8, 8, 256)         0         
_________________________________________________________________
conv2d_6 (Conv2D)            (None, 8, 8, 256)         590080    
_________________________________________________________________
batch_normalization_5 (Batch (None, 8, 8, 256)         1024      
_________________________________________________________________
activation_1 (Activation)    (None, 8, 8, 256)         0         
_________________________________________________________________
up_sampling2d_2 (UpSampling2 (None, 16, 16, 256)       0         
_________________________________________________________________
conv2d_7 (Conv2D)            (None, 16, 16, 256)       590080    
_________________________________________________________________
batch_normalization_6 (Batch (None, 16, 16, 256)       1024      
_________________________________________________________________
activation_2 (Activation)    (None, 16, 16, 256)       0         
_________________________________________________________________
up_sampling2d_3 (UpSampling2 (None, 32, 32, 256)       0         
_________________________________________________________________
conv2d_8 (Conv2D)            (None, 32, 32, 256)       590080    
_________________________________________________________________
batch_normalization_7 (Batch (None, 32, 32, 256)       1024      
_________________________________________________________________
activation_3 (Activation)    (None, 32, 32, 256)       0         
_________________________________________________________________
up_sampling2d_4 (UpSampling2 (None, 64, 64, 256)       0         
_________________________________________________________________
conv2d_9 (Conv2D)            (None, 64, 64, 256)       590080    
_________________________________________________________________
batch_normalization_8 (Batch (None, 64, 64, 256)       1024      
_________________________________________________________________
activation_4 (Activation)    (None, 64, 64, 256)       0         
_________________________________________________________________
up_sampling2d_5 (UpSampling2 (None, 128, 128, 256)     0         
_________________________________________________________________
conv2d_10 (Conv2D)           (None, 128, 128, 256)     590080    
_________________________________________________________________
batch_normalization_9 (Batch (None, 128, 128, 256)     1024      
_________________________________________________________________
activation_5 (Activation)    (None, 128, 128, 256)     0         
=================================================================
Total params: 3,369,216
Trainable params: 3,366,656
Non-trainable params: 2,560
_________________________________________________________________
2020-06-26 10:06:15.574948: I tensorflow/stream_executor/platform/default/dso_loader.cc:42] Successfully opened dynamic library libcublas.so.10.0
2020-06-26 10:06:15.762223: I tensorflow/stream_executor/platform/default/dso_loader.cc:42] Successfully opened dynamic library libcudnn.so.7
…
